…
4757    Available Now: Paroxetine tablets 30mg 30 user...
4758    It's a pitty I'm now wondering about Froomes s...
Name: tweet, Length: 4759, dtype: object
[0 0 0 ... 1 1 1]
[[   0    0    0 ...  238   52   65]
 [   0    0    0 ... 1910  210 2687]
 [   0    0    0 ...   13  179 1058]
 ...
 [   0    0    0 ...  387  168  559]
 [   0    0    0 ...  144  608  944]
 [   0    0    0 ...  131    7  184]]
Model: "sequential_1"
_________________________________________________________________
Layer (type)                 Output Shape              Param #   
=================================================================
embedding_1 (Embedding)      (None, 300, 100)          500000    
_________________________________________________________________
conv1d_1 (Conv1D)            (None, 300, 32)           3232      
_________________________________________________________________
max_pooling1d_1 (MaxPooling1 (None, 60, 32)            0         
_________________________________________________________________
conv1d_2 (Conv1D)            (None, 60, 32)            1056      
_________________________________________________________________
dropout_1 (Dropout)          (None, 60, 32)            0         
_________________________________________________________________
flatten_1 (Flatten)          (None, 1920)              0         
_________________________________________________________________
dense_1 (Dense)              (None, 32)                61472     
_________________________________________________________________
dense_2 (Dense)              (None, 2)                 66        
=================================================================
Total params: 565,826
Trainable params: 565,826
Non-trainable params: 0
_________________________________________________________________
Epoch 1/20

 512/9515 [>.............................] - ETA: 8s - loss: 0.6801 - accuracy: 0.5898
1024/9515 [==>...........................] - ETA: 5s - loss: 0.6539 - accuracy: 0.6709
1536/9515 [===>..........................] - ETA: 3s - loss: 0.6317 - accuracy: 0.7057
…
