…
5132    note to self - nicotine lozenge alcohol = nausea.
5133    act now and get our deluxe cyde-fx set absolut...
Name: tweet, Length: 5134, dtype: object
[0 0 0 ... 1 1 1]
[[   0    0    0 ...  247   52   63]
 [   0    0    0 ... 2138  196 1753]
 [   0    0    0 ...   13  167  975]
 ...
 [   0    0    0 ...  363  176  585]
 [   0    0    0 ...  141  651  912]
 [   0    0    0 ...  154    7  212]]
Model: "sequential_1"
_________________________________________________________________
Layer (type)                 Output Shape              Param #   
=================================================================
embedding_1 (Embedding)      (None, 300, 100)          500000    
_________________________________________________________________
conv1d_1 (Conv1D)            (None, 300, 32)           3232      
_________________________________________________________________
max_pooling1d_1 (MaxPooling1 (None, 60, 32)            0         
_________________________________________________________________
conv1d_2 (Conv1D)            (None, 60, 32)            1056      
_________________________________________________________________
dropout_1 (Dropout)          (None, 60, 32)            0         
_________________________________________________________________
flatten_1 (Flatten)          (None, 1920)              0         
_________________________________________________________________
dense_1 (Dense)              (None, 32)                61472     
_________________________________________________________________
dense_2 (Dense)              (None, 2)                 66        
=================================================================
Total params: 565,826
Trainable params: 565,826
Non-trainable params: 0
_________________________________________________________________
Epoch 1/20

 512/9515 [>.............................] - ETA: 11s - loss: 0.6681 - accuracy: 0.6602
1024/9515 [==>...........................] - ETA: 6s - loss: 0.6380 - accuracy: 0.7148 
…
