…
5132    note to self - nicotine lozenge alcohol = nausea.
5133    act now and get our deluxe cyde-fx set absolut...
Name: tweet, Length: 5134, dtype: object
[0 0 0 ... 1 1 1]
[[   0    0    0 ...  260   48   75]
 [   0    0    0 ... 2418  211 1661]
 [   0    0    0 ...   13  173 1004]
 ...
 [   0    0    0 ...  356  161  606]
 [   0    0    0 ...  128  673 1162]
 [   0    0    0 ...  158    7  243]]
Model: "sequential_1"
_________________________________________________________________
Layer (type)                 Output Shape              Param #   
=================================================================
embedding_1 (Embedding)      (None, 300, 100)          500000    
_________________________________________________________________
conv1d_1 (Conv1D)            (None, 300, 32)           3232      
_________________________________________________________________
max_pooling1d_1 (MaxPooling1 (None, 60, 32)            0         
_________________________________________________________________
conv1d_2 (Conv1D)            (None, 60, 32)            1056      
_________________________________________________________________
dropout_1 (Dropout)          (None, 60, 32)            0         
_________________________________________________________________
flatten_1 (Flatten)          (None, 1920)              0         
_________________________________________________________________
dense_1 (Dense)              (None, 32)                61472     
_________________________________________________________________
dense_2 (Dense)              (None, 2)                 66        
=================================================================
Total params: 565,826
Trainable params: 565,826
Non-trainable params: 0
_________________________________________________________________
Epoch 1/20

  512/20544 [..............................] - ETA: 30s - loss: 0.7182 - accuracy: 0.3633
 1024/20544 [>.............................] - ETA: 16s - loss: 0.6794 - accuracy: 0.6006
…
