…
5132    note to self - nicotine lozenge alcohol = nausea.
5133    act now and get our deluxe cyde-fx set absolut...
Name: tweet, Length: 5134, dtype: object
[0 0 0 ... 1 1 1]
[[   0    0    0 ...  214   70   46]
 [   0    0    0 ... 1994  173 1457]
 [   0    0    0 ...   14  167 1003]
 ...
 [   0    0    0 ...  360  185  492]
 [   0    0    0 ...  209  634  613]
 [   0    0    0 ...  127    7  144]]
Model: "sequential_1"
_________________________________________________________________
Layer (type)                 Output Shape              Param #   
=================================================================
embedding_1 (Embedding)      (None, 300, 50)           250000    
_________________________________________________________________
conv1d_1 (Conv1D)            (None, 300, 32)           1632      
_________________________________________________________________
max_pooling1d_1 (MaxPooling1 (None, 60, 32)            0         
_________________________________________________________________
conv1d_2 (Conv1D)            (None, 60, 32)            1056      
_________________________________________________________________
dropout_1 (Dropout)          (None, 60, 32)            0         
_________________________________________________________________
flatten_1 (Flatten)          (None, 1920)              0         
_________________________________________________________________
dense_1 (Dense)              (None, 32)                61472     
_________________________________________________________________
dense_2 (Dense)              (None, 2)                 66        
=================================================================
Total params: 314,226
Trainable params: 314,226
Non-trainable params: 0
_________________________________________________________________
Epoch 1/20

  512/33851 [..............................] - ETA: 34s - loss: 0.7327 - accuracy: 0.5234
 1024/33851 [..............................] - ETA: 19s - loss: 0.7149 - accuracy: 0.5107
…
